03_pytorch_computer_vision_model_2.pth (torch, 35634 bytes, 10 tensors)

block_1.0.weight f4 [10, 1, 3, 3]
0.2800531 0.25024056 -0.3865592 0.15013127 0.13851959 -0.019918112 -0.41148993 0.08937076
0.45519304 -0.26841936 0.34147394 -0.13876197 0.28918526 0.39750737 0.06241572 -0.14263201
0.41032317 0.040073738 -0.42000416 -0.13688709 -0.027763525 -0.5747928 -0.63587743 0.11368097
-0.709811 -0.5907857 -0.12099413 -0.8398512 -1.0330158 -0.7768448 0.2918548 -0.54669785
0.18825503 0.3420104 0.0035238923 0.386639 -0.019648675 0.39044192 -0.23377238 -0.20108485
0.44126755 -0.35654688 -0.049005643 0.4604054 0.01705267 -0.14664328 0.19258086 0.06335481
0.16966122 -0.20413105 -0.33181104 -0.12803102 -0.25366452 0.26963753 0.1433824 0.05682971
0.014324786 -0.076139934 0.057673015 -0.16766259 -0.019286469 -0.51144254 0.0678582 -0.08615227
0.1033931 -0.12798579 0.36468047 -0.23591925 -0.3519206 -0.19957976 0.3612077 0.18426126
0.37370396 -0.26647148 -0.3231265 -0.28492072 -0.24808554 0.12389171 0.09303352 0.29339314
-0.18920536 -0.22691987 0.17674647 -0.13467622 0.20304294 -0.07936551 0.19028993 -0.2590869
-0.1680429 0.10216618
00000000: 1f63 8f3e 881f 803e 16eb c5be 03bc 193e
00000010: 14d8 0d3e 4f2b a3bc cfae d2be 0408 b73d
00000020: 100f e93e 436e 89be acd5 ae3e 9e17 0ebe
00000030: 1710 943e 1686 cb3e a0a7 7f3d 200e 12be
00000040: e115 d23e 5c24 243d c90a d7be 212c 0cbe
00000050: 5570 e3bc 9f25 13bf ddc8 22bf 92d1 e83d
00000060: 2cb6 35bf bb3d 17bf c5cb f7bd 7d00 57bf
00000070: dd39 84bf 4ddf 46bf fe6d 953e 64f4 0bbf
00000080: edc5 403e fd1b af3e 1af1 663b 8cf5 c53e
00000090: 42f6 a0bc 01e8 c73e 0762 6fbe 30e9 4dbe
000000a0: d2ed e13e 508d b6be 24ba 48bd 42ba eb3e
000000b0: 0ab2 8b3c a829 16be eb33 453e 2bc0 813d
000000c0: acbb 2d3e bb07 51be 23e3 a9be 901a 03be
000000d0: 51e0 81be ee0d 8a3e d6d2 123e 45c6 683d
000000e0: 82b2 6a3c 41ef 9bbd 8a3a 6c3d beaf 2bbe
000000f0: a8fe 9dbc e6ed 02bf 3df9 8a3d 9a70 b0bd
00000100: c3bf d33d b50e 03be 66b7 ba3e d194 71be
00000110: f02e b4be a35e 4cbe 37f0 b83e fcae 3c3e
00000120: 2056 bf3e f36e 88be d670 a5be 21e1 91be
00000130: 230a 7ebe f0ba fd3d 5c88 be3d a037 963e
00000140: 0dbf 41be af5d 68be 07fd 343e 90e8 09be
00000150: 7dea 4f3e 628a a2bd 5ddb 423e 0aa7 84be
00000160: 7013 2cbe 813c d13d

block_1.0.bias f4 [10]
0.06623074 0.08286768 0.19128771 0.20851713 0.06504521 -0.18083136 0.17353421 -0.055244923
-0.020420732 -0.3223523
00000000: fba3 873d 88b6 a93d ede0 433e 8485 553e
00000010: 6c36 853d db2b 39be f4b2 313e 8048 62bd
00000020: 6149 a7bc 5c0b a5be

block_1.2.weight f4 [10, 10, 3, 3]
0.048907503 0.003874811 -0.06446331 -0.1283431 -0.15395167 -0.1784114 -0.17387144 -0.17160165
-0.14070691 -0.083889164 0.005555253 -0.0820231 -0.15594487 -0.29304644 -0.24649018 -0.12343182
-0.2068204 -0.21311857 -0.015041979 0.005108844 0.0835115 0.12260038 0.25431332 0.17740084
-0.07499906 -0.0077700056 0.083957694 -0.18763869 -0.024358083 -0.20416556 -0.0058326293 -0.030869175
-0.14989765 0.19735757 0.060877047 0.036782935 -0.13415167 -0.15728548 -0.05819499 -0.09385263
-0.0404578 -0.19014359 0.12930697 -0.10894772 -0.06387164 0.022241468 0.054455247 0.08484515
0.09596384 -0.08364746 0.029256519 -0.044764336 -0.012637671 -0.0774983 0.1321874 -0.08294345
0.0015835108 0.1317132 0.0875266 -0.0071665817 0.032692537 0.0056607267 -0.0588712 -0.082368
0.051075365 -0.009532027 -0.04633899 0.08607729 0.01269834 -0.045446433 -0.06716845 -0.007866795
0.08366825 -0.013839886 -0.053705897 -0.024747495 -0.07024376 0.047211375 0.109621465 -0.09414445
0.020926256 0.054445643 0.019098107 -0.03753617 0.05501707 0.055393957 0.03941752 -0.018522665
-0.027912505 0.011272102 0.03313669 -0.0790453 -0.0017979065 0.19492213 0.0013135757 -0.11903485
0.094376475 0.072464325 0.0070741735 0.08337831 -0.11068279 -0.11756917 0.15458588 0.071569584
-0.11342681 -0.00981658 0.008144287 -0.121858865 -0.03903022 0.031579092 0.059488967 0.04655734
-0.10037033 -0.08826523 -0.012564023 0.10635124 -0.003159773 0.0026929197 0.05883359 -0.013696622
-0.08407566 0.10628666 0.0104236435 -0.032342743 -0.10851873 0.15807024 0.12270162 0.041868974
-0.12422469 -0.06861508 -0.03912595 0.028129878 0.064215034 0.14436007 0.03126864 0.026788907
-0.0006161127 -0.07989998 -0.09006919 -0.09859024 0.04366021 -0.051662546 -0.021271538 -0.06045291
-0.022924675 -0.08642041 -0.056346003 0.042683534 -0.05425846 0.05650917 -0.032243583 -0.092242986
-0.022080613 -0.027043901 -0.01690092 -0.10064757 0.09734028 -0.02818937 0.066205665 0.044101678
0.092101604 -0.053610317 0.086670205 -0.0414064 0.04565789 0.10128573 -0.0060296766 0.007697397
-0.022622768 -0.09082058 0.054635685 -0.10464821 0.06543347 0.0788675 0.09964947 -0.024872942
-0.08660955 0.023700133 0.058229204 -0.10492437 -0.02428027 -0.06364472 -0.010097948 -0.05193867
-0.04307374 -0.033751853 -0.10100139 0.08499224 0.08342397 -0.016590003 -0.01245532 -0.04312159
-0.09408085 -0.102193035 0.038324017 -0.060082067 -0.06878542 -0.011746848 -0.038239896 -0.037800375
-0.00041189897 -0.023928292 -0.040008258 -0.055613536 -0.08722831 0.08796079 -0.042031102 0.025218982
-0.03932403 0.005283486 0.09399702 0.046239313 -0.093432486 0.029340085 0.088834874 0.018225798
0.07024448 0.10336825 -0.016564203 0.022039877 -0.07330061 -0.02195568 0.07514004 0.051171884
-0.07147413 -0.08452606 -0.07203234 -0.10402152 -0.08133789 -0.026157796 0.07118042 0.0176406
-0.08020485 -0.084565446 0.048804257 -0.08190006 -0.01668686 0.046164412 -0.053829603 -0.0151561005
-0.011782231 -0.028007673 -0.05616328 -0.093966655 -0.08522119 -0.05646404 0.10200258 -0.050831147
-0.070708916 0.023290725 0.029062578 0.056867782 0.08008481 0.058666945 -0.104510956 0.009976038
00000000: 3c53 483d 8bf0 7d3b 5705 84bd 606c 03be
00000010: 82a5 1dbe 7ab1 36be 5b0b 32be 58b8 2fbe
00000020: 7915 10be 15ce abbd d708 b63b bafb a7bd
00000030: 03b0 1fbe 2f0a 96be ec67 7cbe d2c9 fcbd
00000040: bac8 53be c13b 5abe a272 76bc 1768 a73b
00000050: 1408 ab3d e815 fb3d 5b35 823e 91a8 353e
00000060: 1b99 99bd 889b febb 03f2 ab3d 5b24 40be
00000070: 9a8a c7bc c710 51be a41f bfbb 5ae1 fcbc
00000080: c57e 19be 1a18 4a3e 365a 793d b4a9 163d
00000090: 0e5f 09be 720f 21be df5d 6ebd cf35 c0bd
000000a0: 14b7 25bd 00b5 42be 0c69 043e fb1f dfbd
000000b0: 22cf 82bd bd33 b63c 770c 5f3d 4bc3 ad3d
000000c0: b188 c43d 5c4f abbd 5eab ef3c cf5a 37bd
000000d0: 3c0e 4fbc 6eb7 9ebd 225c 073e 41de a9bd
000000e0: ce8d cf3a d3df 063e 2541 b33d a5d5 eabb
000000f0: 9ce8 053d 9e7d b93b ed22 71bd 8eb0 a8bd
00000100: 6734 513d 382c 1cbc f4cd 3dbd 4a49 b03d
00000110: b30c 503c 0a26 3abd 9d8f 89bd bbe3 00bc
00000120: 425a ab3d b0c0 62bc b7fa 5bbd 42bb cabc
00000130: f6db 8fbd b760 413d 3881 e03d cece c0bd
00000140: 8a6d ab3c 6502 5f3d a273 9c3c 87bf 19bd
00000150: 9459 613d c6e4 623d 4474 213d d8bc 97bc
00000160: c4a8 e4bc 9fae 383c 56ba 073d 81e2 a1bd
00000170: bba7 ebba ab99 473e 492c ac3a 8bc8 f3bd
00000180: 7448 c13d 2d68 943d 78ce e73b 3fc2 aa3d
00000190: a9ad e2bd 1bc8 f0bd c34b 1e3e 1393 923d
000001a0: 514c e8bd b9d5 20bc 9e6f 053c 2491 f9bd
000001b0: 27de 1fbd 1459 013d b4aa 733d e9b2 3e3d
000001c0: f68e cdbd 67c4 b4bd 55d9 4dbc aece d93d
000001d0: 3214 4fbb b27b 303b 7efb 703d cc67 60bc
000001e0: dc2f acbd d2ac d93d eec7 2a3c d379 04bd
000001f0: 113f debd 2add 213e fd4a fb3d cd7e 2b3d
00000200: 8469 febd 1086 8cbd 8842 20bd a170 e63c
00000210: 2c83 833d 20d3 133e 8c13 003d 6974 db3c
00000220: a082 21ba 9aa2 a3bd 3276 b8bd aee9 c9bd
00000230: 0cd5 323d 1b9c 53bd a641 aebc 789d 77bd
00000240: 87cc bbbc 2ffd b0bd 11cb 66bd eed4 2e3d
00000250: 1e3e 5ebd 2976 673d d911 04bd e4e9 bcbd
00000260: 67e2 b4bc 2c8b ddbc cc73 8abc 5020 cebd
00000270: 575a c73d 65ed e6bc d696 873d f6a3 343d
00000280: c49f bc3d 7e96 5bbd 2680 b13d c299 29bd
00000290: c503 3b3d e56e cf3d 9894 c5bb 723a fc3b
000002a0: 6253 b9bc 2400 babd abc9 5f3d cd51 d6bd
000002b0: fc01 863d 4985 a13d 0515 cc3d 57c2 cbbc
000002c0: 5960 b1bd c826 c23c bf81 6e3d 97e2 d6bd
000002d0: 6be7 c6bc 2a58 82bd dd71 25bc a5bd 54bd
000002e0: 176e 30bd 623f 0abd d1d9 cebd 6910 ae3d
000002f0: 30da aa3d c2e7 87bc 6611 4cbc 44a0 30bd
00000300: 76ad c0bd 954a d1bd a5f9 1c3d 9d18 76bd
00000310: 5fdf 8cbd da75 40bc 70a1 1cbd 91d4 1abd
00000320: 25f4 d7b9 4405 c4bc b3df 23bd 05cb 63bd
00000330: c2a4 b2bd c924 b43d ce28 2cbd 0a98 ce3c
00000340: 3c12 21bd 1821 ad3b 8281 c03d 6f65 3d3d
00000350: 8859 bfbd 9e5a f03c 0fef b53d 454e 953c
00000360: 57dc 8f3d bcb2 d33d a7b1 87bc f98c b43c
00000370: a11e 96bd 66dc b3bc 05e3 993d 9c99 513d
00000380: 0761 92bd 001c adbd b185 93bd 3c09 d5bd
00000390: 7b94 a6bd e048 d6bc 0ac7 913d 0583 903c
000003a0: 7142 a4bd a630 adbd f9e6 473d 38bb a7bd
000003b0: e2b2 88bc e516 3d3d 6e7c 5cbd 4b51 78bc
000003c0: 420a 41bc 5970 e5bc 780b 66bd 9771 c0bd
000003d0: 7288 aebd d646 67bd bbe6 d03d 5234 50bd
000003e0: d6cf 90bd 31cc be3c a514 ee3c 31ee 683d
000003f0: 8103 a43d c04c 703d d709 d6bd 8972 233c

block_1.2.bias f4 [10]
0.37850165 -0.10870353 -0.07348698 0.48933035 -0.1277316 0.08979265 0.10337529 -0.16215481
0.25670403 0.082870096
00000000: f8ca c13e f59f debd 5780 96bd 8289 fa3e
00000010: 13cc 02be 35e5 b73d 6db6 d33d e90b 26be
00000020: b66e 833e ccb7 a93d

block_2.0.weight f4 [10, 10, 3, 3]
0.014344655 -0.08859013 -0.05518643 -0.004539021 0.02432932 0.07409975 -0.08699219 0.037557874
0.070625216 0.06093581 -0.09451893 -0.040989116 -0.08843984 -0.062494885 0.060639128 -0.015006088
0.04479957 -0.06544591 0.016069807 -0.063731976 0.052846976 -0.046187222 -0.026397424 -0.09143605
0.00022705352 0.10005543 0.05115425 -0.09087568 0.039223876 0.026543362 -0.14752619 0.090372466
0.0060225055 -0.068156645 -0.08667883 -0.05743407 -0.0018208113 0.05774778 0.020600835 -0.072648495
0.11712781 -0.018209731 -0.085353024 -0.03727974 0.097615324 -0.01491275 -0.048493907 -0.044733144
-0.03321089 -0.099258214 -0.079002656 0.048085835 0.07561934 0.0842085 -0.1606704 0.1014694
-0.08349707 -0.023094147 0.12824206 0.07617666 -0.0024498205 0.069820866 -0.053860396 0.031448305
-0.011544574 0.020086685 -0.042661067 0.034830492 -0.106885776 -0.03343849 -0.034318093 -0.07785281
-0.1509125 -0.0331126 0.02183656 -0.017947292 0.13637525 0.05985534 -0.16429022 -0.10782355
0.0077789985 0.19597974 -0.09656879 0.07350236 0.21793017 0.006624079 -0.027648 0.16913506
0.04826481 0.09718437 -0.14016283 -0.2939974 -0.21687892 0.1343916 -0.23983943 0.0040590456
0.037051775 0.116175026 -0.043724604 0.04130525 -0.14860418 -0.22523671 -0.05494913 0.030319024
-0.06869855 0.023248883 -0.07980877 0.033227116 0.06119442 0.037298948 -0.0534705 -0.08619217
0.0037463193 -0.0621849 0.08663 -0.10150882 0.046688728 -0.007861154 0.50327414 0.40371224
-0.27101535 0.78086036 0.30102724 -0.76692516 -0.2507897 -0.22792627 -0.0051425374 0.1196756
0.084949195 -0.067556635 -0.00476948 0.029436005 0.0046246415 -0.1508323 -0.048505727 0.023809932
-0.37859565 -0.10893053 0.19463345 0.105623394 0.01300193 0.19365694 0.20924485 0.11425858
-0.443357 0.046076085 0.044056736 -0.57469445 0.42858753 0.4967145 -0.458162 -0.014917792
0.008052473 -0.03714616 -0.3619064 -0.20064175 -0.34792736 -0.057514172 -0.23510927 -0.2732325
-0.15049179 -0.15655829 -0.4062679 0.20953077 0.5208856 -0.18884087 0.42116386 0.26308662
-0.2632409 -0.12731816 -0.17330864 0.3763779 -0.044964492 -0.2437281 0.17269808 -0.056980852
-0.27247563 -0.30775434 0.07743422 0.19058625 -0.032310344 0.071704745 0.04346734 -0.059164703
-0.10122822 -0.107279204 -0.06967244 -0.05935273 -0.037440084 -0.024801204 -0.052506592 -0.033924673
-0.04180139 0.104808345 -0.03457498 -0.08323459 0.044143762 -0.0063191997 0.08069919 0.065948166
0.096919395 -0.07723036 0.06779245 0.0884605 -0.05204999 0.09682659 0.078995235 -0.08520919
0.007642998 0.03255731 -0.18584925 0.02562174 0.08711037 -0.11431075 0.029383881 -0.09814416
0.077769384 0.0895616 0.033309516 -0.078313105 0.054559898 0.041763637 0.0071536642 0.022337126
0.07504146 -0.03181633 -0.030475112 0.019267483 -0.0141826635 0.056196608 -0.053934146 -0.035237074
-0.007109996 -0.020738922 0.055099085 -0.030589819 -0.07853625 -0.033192508 -0.06544888 0.04153932
-0.068993315 -0.115144856 -0.020798398 -0.0038002275 -0.03996045 0.09879826 -0.02873378 0.08130096
0.04593374 -0.123605296 0.022718024 0.076935336 -0.12447488 -0.12874307 0.13591744 0.022228573
00000000: d805 6b3c be6e b5bd 2b0b 62bd 11bc 94bb
00000010: 484e c73c 9cc1 973d f628 b2bd 49d6 193d
00000020: f4a3 903d d497 793d 2493 c1bd 34e4 27bd
00000030: f21f b5bd a3fa 7fbd bc60 783d 18dc 75bc
00000040: c17f 373d 8108 86bd d4a4 833c e985 82bd
00000050: 1276 583d d02e 3dbd 693f d8bc d342 bbbd
00000060: 3715 6e39 dce9 cc3d 1e87 513d 071d babd
00000070: 37a9 203d 7771 d93c 1b11 17be 3315 b93d
00000080: 7058 c53b b695 8bbd ac84 b1bd fd3f 6bbd
00000090: 4aa8 eeba f088 6c3d 15c3 a83c bcc8 94bd
000000a0: b5e0 ef3d 932c 95bc 91cd aebd a4b2 18bd
000000b0: 8bea c73d 9b54 74bc 8ca1 46bd 1a3a 37bd
000000c0: 2408 08bd e447 cbbd 25cc a1bd a7f5 443d
000000d0: 50de 9a3d 8275 ac3d c886 24be 30cf cf3d
000000e0: 8300 abbd f02f bdbc e351 033e 8202 9c3d
000000f0: 2b8d 20bb 3efe 8e3d b89c 5cbd f0cf 003d
00000100: 7425 3dbc d58c a43c 5fbd 2ebd 6baa 0e3d
00000110: eee6 dabd ccf6 08bd 2191 0cbd 4b71 9fbd
00000120: ce88 1abe 14a1 07bd 96e2 b23c 3306 93bc
00000130: f4a5 0b3e df2a 753d b23b 28be 98d2 dcbd
00000140: f8e6 fe3b eaae 483e dcc5 c5bd 6888 963d
00000150: 1629 5f3e cd0e d93b 0f7e e2bc be31 2d3e
00000160: 52b1 453d 9908 c73d d886 0fbe d486 96be
00000170: 8215 5ebe f49d 093e 7898 75be be01 853b
00000180: 9ac3 173d 2ced ed3d 9218 33bd b22f 293d
00000190: b22b 18be 74a4 66be 5712 61bd 9a5f f83c
000001a0: d3b1 8cbd 7174 be3c c872 a3bd 2819 083d
000001b0: 00a7 7a3d c8c6 183d e203 5bbd 8585 b0bd
000001c0: cf84 753b 98b5 7ebd 126b b13d dbe3 cfbd
000001d0: ae3c 3f3d 12cc 00bc 93d6 003f 5fb3 ce3e
000001e0: 86c2 8abe 77e6 473f 3e20 9a3e 3555 44bf
000001f0: 8267 80be 8165 69be bb82 a8bb 7b18 f53d
00000200: d8f9 ad3d 225b 8abd 4c49 9cbb c723 f13c
00000210: 4e8a 973b c873 1abe f1ad 46bd 0c0d c33c
00000220: 4ad7 c1be f816 dfbd fe4d 473e 1451 d83d
00000230: 0c06 553c 014e 463e 4844 563e 6700 ea3d
00000240: b0ff e2be 47ba 3c3d d674 343d 2d1f 13bf
00000250: d36f db3e 5d51 fe3e 3694 eabe c169 74bc
00000260: 85ee 033c 9226 18bd cc4b b9be 0875 4dbe
00000270: 8923 b2be fb93 6bbd 7cc0 70be 21e5 8bbe
00000280: 851a 1abe d150 20be 5902 d0be 3c8f 563e
00000290: c258 053f 805f 41be caa2 d73e 4ab3 863e
000002a0: 83c7 86be b15f 02be d277 31be 9bb4 c03e
000002b0: b02c 38bd dc93 79be c4d7 303e c164 69bd
000002c0: ed81 8bbe fa91 9dbe d595 9e3d 0b29 433e
000002d0: da57 04bd f0d9 923d cf0a 323d b056 72bd
000002e0: be50 cfbd 33b5 dbbd 6db0 8ebd d91b 73bd
000002f0: c65a 19bd e52b cbbc 2711 57bd 99f4 0abd
00000300: ef37 2bbd c2a5 d63d 7f9e 0dbd e676 aabd
00000310: 17d0 343d 4a11 cfbb 9e45 a53d d50f 873d
00000320: ad7d c63d f32a 9ebd c5d6 8a3d c72a b53d
00000330: 5f32 55bd 054d c63d 41c8 a13d 2882 aebd
00000340: 1d72 fa3b d05a 053d 444f 3ebe afe4 d13c
00000350: ec66 b23d c11b eabd 77b6 f03c ceff c8bd
00000360: 8e45 9f3d 126c b73d 8f6f 083d 9f62 a0bd
00000370: 337a 5f3d 5910 2b3d 4969 ea3b 59fc b63c
00000380: 56af 993d d751 02bd f1a6 f9bc d7d6 9d3c
00000390: 675e 68bc 6a2e 663d 0dea 5cbd c054 10bd
000003a0: f8fa e8bb ace4 a9bc 94af 613d 8097 fabc
000003b0: 9dd7 a0bd def4 07bd 100a 86bd 2225 2a3d
000003c0: 5e4c 8dbd 11d1 ebbd 6761 aabc 3d0d 79bb
000003d0: 92ad 23bd be56 ca3d 1b63 ebbc 1e81 a63d
000003e0: 0425 3c3d c624 fdbd 261b ba3c 4690 9d3d
000003f0: b0ec febd 39d5 03be f12d 0b3e b218 b63c

block_2.0.bias f4 [10]
-0.10693408 0.18444078 -0.05112476 -0.1776246 -0.059988454 0.053734187 0.2932356 0.18987511
0.73835146 -0.058617104
00000000: 4100 dbbd 0bde 3c3e 3268 51bd 39e3 35be
00000010: 74b6 75bd 6118 5c3d fa22 963e 9f6e 423e
00000020: 9a04 3d3f 7d18 70bd

block_2.2.weight f4 [10, 10, 3, 3]
-0.08707787 -0.17407775 -0.0008050045 -0.058637984 -0.08838882 -0.005866637 0.018484794 -0.15058944
0.08990798 -0.21260913 -0.25850967 -0.18976928 -0.046637733 -0.040423386 -0.66938955 0.36814445
0.23081417 -0.74363005 -0.056929864 0.0037128828 0.09013438 -0.18842998 0.0648326 0.026705887
-0.059106853 0.073951766 -0.1004617 -0.14882767 0.11822777 -0.08000318 -0.11275601 -0.052008636
-0.061342325 -0.05850698 -0.037549447 -0.06672813 -0.03824396 -0.054372013 0.10885065 0.010101014
-0.052007724 -0.01701205 -0.03491779 -0.059896305 -0.18324818 -0.054450344 -0.072385356 0.14431192
-0.011731382 0.01615198 0.09197184 0.0017118215 -0.06015799 -0.07020939 -0.061858255 0.050002575
-0.18978636 -0.35155666 -0.09791152 0.10078815 -0.21990998 0.2571503 0.17487323 0.22426572
0.116851576 0.16126128 -0.095716804 0.089691974 0.0032855235 -0.1625105 0.029785492 -0.21862435
0.30451825 -0.09885274 -0.0025181533 -0.011115796 -0.26553616 0.082568064 -0.24966714 -0.34006727
-0.32924297 -0.020704778 0.059933953 -0.04654283 0.014189839 -0.07887055 -0.037191413 0.034936316
-0.008476189 -0.04541115 0.07247038 0.012305748 -0.083322525 -0.017454017 -0.03192496 -0.1115021
0.18566778 -0.051903337 -0.023792142 0.11755195 0.17591576 -0.24002936 -0.14460595 -0.32262722
0.44665077 -0.24745774 -0.67978436 0.27530715 -0.0023210137 -0.063369036 0.08975042 0.06380823
-0.1354521 -0.018729383 -0.040646613 -0.15734151 -0.022102349 -0.004202103 0.08239874 0.08855475
0.2075719 -0.09318266 -0.083841205 0.17050177 0.015413684 0.0169917 -0.018228034 0.025066804
-0.025869785 0.008179999 -0.06731778 0.020755539 0.07510544 -0.08747874 -0.10429965 -0.04631315
0.037917413 0.053795505 -0.10856659 -0.10331881 0.006721443 -0.03501793 0.018585427 -0.0055549797
-0.08702333 -0.22639564 0.30967665 -0.24587755 -0.19525938 0.352729 0.124279186 -0.10334136
0.0045523574 0.014662914 -0.2469162 -0.07591777 0.18049037 -0.37636352 -0.025610587 0.3696298
-0.52126575 0.06717567 -0.33476272 -0.1537753 -0.22873491 0.14010902 0.14908712 -0.42488134
0.20130225 0.09837739 -0.09376683 -0.022078145 0.07025841 0.11357577 -0.066981696 -0.0655715
0.04465673 -0.00052861916 -0.018185927 -0.09782289 0.08448893 0.025103617 -0.023281638 -0.0794969
0.009962235 0.0012580061 -0.008069103 0.0677098 -0.010781602 -0.6010672 0.0008980629 -0.6421777
-0.48057866 0.5682594 -0.24028298 -0.24976514 0.104939975 0.4179686 -0.06750861 -0.044504378
-0.012012207 -0.047444146 0.007097857 0.067591615 -0.050799835 -0.09540259 0.082522474 -0.07912331
0.10706307 -0.043604434 0.062157452 0.06446672 -0.25176153 0.011782798 -0.00436902 -0.17639409
0.07168716 -0.082377926 -0.08807213 -0.032982204 0.07338919 -0.11379918 0.12141229 0.056337412
0.027554149 0.09042248 0.005507047 -0.11455182 0.082817845 0.01419566 -0.007663976 -0.07317038
-0.0063772206 -0.05653755 -0.6329699 0.069847934 0.39850566 -0.3365909 -0.045504853 -0.10507349
-0.0262435 0.18240167 0.07065277 -0.497266 0.46865958 0.24838333 0.038000807 -0.06968242
-0.07526797 0.14632681 -0.2975838 -0.21123746 -0.17666028 -0.10504324 0.10259632 0.0032045671
00000000: e255 b2bd 7041 32be f006 53ba 622e 70bd
00000010: 3305 b5bd eb3c c0bb 6c6d 973c 1e34 1abe
00000020: ad21 b83d 35b6 59be 615b 84be e152 42be
00000030: 3507 3fbd fe92 25bd 1d5d 2bbf 6e7d bc3e
00000040: 8d5a 6c3e 8a5e 3ebf 4a2f 69bd d653 733b
00000050: 6098 b83d caf3 40be f4c6 843d 4ec6 da3c
00000060: 071a 72bd 0674 973d ddbe cdbd 4866 18be
00000070: 6721 f23d b5d8 a3bd 9fec e6bd 0207 55bd
00000080: 1742 7bbd 04a5 6fbd 73cd 19bd c2a8 88bd
00000090: b3a5 1cbd 30b5 5ebd 17ed de3d b97e 253c
000000a0: 0d06 55bd db5c 8bbc f505 0fbd d455 75bd
000000b0: 69a5 3bbe 5307 5fbd c63e 94bd 81c6 133e
000000c0: fc34 40bc 2851 843c bb5b bc3d 335f e03a
000000d0: 3968 76bd f1c9 8fbd 155f 7dbd 80cf 4c3d
000000e0: 5b57 42be 3cff b3be d685 c8bd 056a ce3d
000000f0: 1530 61be 34a9 833e f811 333e eaa5 653e
00000100: e14f ef3d ad21 253e 2c07 c4bd 6db0 b73d
00000110: f051 573b 2769 26be b400 f43c 10df 5fbe
00000120: d1e9 9b3e 4e73 cabd 9a07 25bb 071f 36bc
00000130: 5bf4 87be 7219 a93d bea8 7fbe 4c1d aebe
00000140: 8992 a8be 119d a9bc 4e7d 753d b2a3 3ebd
00000150: 807c 683c e286 a1bd 0656 18bd 6219 0f3d
00000160: b7df 0abc 0b01 3abd 5a6b 943d 0c9e 493c
00000170: 00a5 aabd bafb 8ebc bfc3 02bd 375b e4bd
00000180: b21f 3e3e 9898 54bd bde7 c2bc 14bf f03d
00000190: 4323 343e 42ca 75be 9513 14be 652f a5be
000001a0: 69af e43e 9065 7dbe 5906 2ebf 0ff5 8c3e
000001b0: 261c 18bb a0c7 81bd 11cf b73d e4ad 823d
000001c0: f5b3 0abe 5d6e 99bc 107d 26bd 221e 21be
000001d0: fc0f b5bc cbb1 89bb acc0 a83d 315c b53d
000001e0: ba8d 543e 8dd6 bebd f0b4 abbd 0498 2e3e
000001f0: ad89 7c3c 2d32 8b3c f552 95bc e658 cd3c
00000200: dfec d3bc 6705 063c e7dd 89bd 8507 aa3c
00000210: e2d0 993d 0e28 b3bd 0e9b d5bd dcb2 3dbd
00000220: 4a4f 1b3d ad58 5c3d 2958 debd d098 d3bd
00000230: 8d3f dc3b f66e 0fbd 7740 983c 8c06 b6bb
00000240: 4a39 b2bd 42d4 67be f08d 9e3e 53c7 7bbe
00000250: 13f2 47be e598 b43e 1686 fe3d a3a4 d3bd
00000260: f12b 953b b83c 703c 9ad7 7cbe c77a 9bbd
00000270: 78d2 383e b8b2 c0be 4bcd d1bc 1e40 bd3e
00000280: ac71 05bf 6693 893d 0566 abbe 4677 1dbe
00000290: 7c39 6abe bd78 0f3e 4baa 183e 0c8a d9be
000002a0: 2d22 4e3e 167a c93d d308 c0bd 3add b4bc
000002b0: a4e3 8f3d 6a9a e83d b32d 89bd 5a4a 86bd
000002c0: fae9 363d 0893 0aba a7fa 94bc 5e57 c8bd
000002d0: 8808 ad3d 1aa6 cd3c 22b9 bebc 45cf a2bd
000002e0: a438 233c aee3 a43a 4534 04bc 70ab 8a3d
000002f0: 51a5 30bc 8adf 19bf fb6b 6b3a c265 24bf
00000300: 680e f6be 7379 113f be0c 76be 6fc2 7fbe
00000310: c5ea d63d fbff d53e f441 8abd 394a 36bd
00000320: d9ce 44bc cb54 42bd 2495 e83b 796d 8a3d
00000330: 7d13 50bd 6f62 c3bd 8b01 a93d 670b a2bd
00000340: e243 db3d 909a 32bd d098 7e3d 2107 843d
00000350: e3e6 80be a30c 413c ff29 8fbb a7a0 34be
00000360: b8d0 923d c2b5 a8bd 295f b4bd 5918 07bd
00000370: 124d 963d 8b0f e9bd 02a7 f83d 0fc2 663d
00000380: 3db9 e13c 6c2f b93d 7574 b43b 259a eabd
00000390: 679c a93d ea94 683c 1722 fbbb 5ada 95bd
000003a0: 01f8 d0bb eb93 67bd 510a 22bf 6f0c 8f3d
000003b0: ef08 cc3e a455 acbe 4c63 3abd c530 d7bd
000003c0: 9cfc d6bc 81c7 3a3e 66b2 903d a699 febe
000003d0: 26f4 ef3e 3358 7e3e bca6 1b3d a8b5 8ebd
000003e0: 1826 9abd b2d6 153e e75c 98be a24e 58be
000003f0: 6fe6 34be e920 d7bd 051e d23d b703 523b

block_2.2.bias f4 [10]
0.21813963 0.012096218 0.17204319 -0.0015407573 -0.09344614 0.18568887 0.13724586 -0.09187522
0.06360444 -0.09537697
00000000: ff5f 5f3e 372f 463c 172c 303e 3cf3 c9ba
00000010: b160 bfbd 3925 3e3e 2e8a 0c3e 1329 bcbd
00000020: 0b43 823d 0055 c3bd

classifier.1.weight f4 [10, 490]
-0.017805796 -0.019022506 0.0586391 -0.193686 0.030734198 -0.102494344 0.069730446 0.033131503
0.20581104 0.116851024 -0.210547 0.079573385 0.10178696 0.17804767 0.024593012 0.102505706
0.18174636 -0.16724971 0.15754113 0.042226586 -0.008032999 -0.027674632 0.17796704 -0.06608951
-0.09543845 0.15767224 -0.06694388 -0.02570557 -0.08723771 0.02854899 -0.06694565 -0.0490184
0.2399071 -0.055694416 0.0053541777 0.010287303 -0.11200023 -0.036619168 -0.10587236 -0.04089321
0.15019013 -0.09212422 0.047341164 -0.16541007 -0.16949312 -0.023744166 -0.076411076 0.26535746
-0.0711772 0.18729499 0.09848027 -0.18393466 -0.13585648 0.09806989 -0.10423036 0.18027937
0.016414847 -0.062151827 -0.20529723 -0.028243804 -0.012454976 0.087889954 0.003724328 0.058524296
0.089303315 -0.10243922 -0.009351905 -0.03554619 0.17312706 0.08721247 0.11054947 -0.014510766
-0.043608926 -0.07774191 -0.059781484 0.18717231 -0.02304342 0.002664508 -0.034945372 -0.05959084
-0.108204514 0.10340769 0.16816482 -0.11800982 -0.1885913 0.024785118 -0.15092336 -0.10900714
0.018323287 -0.0061991047 0.04738752 -0.081282675 -0.017818602 0.17857198 -0.0020396549 -0.09426101
-0.057553012 0.054198142 0.04215105 -0.010983928 0.050715823 -0.012025306 0.111011006 0.13264972
0.018104192 0.22244556 0.10561745 0.08979891 0.02144677 0.07427839 0.17430243 0.09280835
0.11603436 0.14386168 0.28436172 -0.027819507 0.021612309 -0.008665444 -0.049589 -0.07463982
-0.14688785 0.09753235 -0.10477731 -0.043503024 0.1097712 -0.081790954 -0.24452072 -0.018666929
0.054258212 -0.030055726 -0.14473265 0.03357753 0.09749222 -0.09382919 0.11593858 0.046741758
-0.078227274 -0.13053614 -0.096195325 0.06304432 -0.044110067 0.08943193 0.04778698 -0.09533945
-0.07092318 -0.15488368 -0.12774962 0.13452397 -0.078308575 -0.00435381 -0.007369836 0.07433445
0.050585203 -0.040190678 -0.14818555 -0.057277083 -0.089364186 -0.015455083 -0.0041293222 -0.094688654
-0.1327634 -0.15366961 -0.054003775 -0.08086508 0.037373975 -0.034882847 -0.067344815 0.05937365
-0.00974795 0.110093944 -0.011630389 0.028296962 0.021365175 0.011511937 0.14050975 -0.041470643
0.20366487 -0.034238506 -0.058842607 -0.03413703 -0.050568234 0.15936704 -0.06414522 0.20803834
-0.08225135 -0.08853536 -0.0048696813 -0.011701144 0.11842274 0.016784182 0.0687707 -0.10440559
-0.005384996 -0.10598268 -0.050408777 0.055994745 -0.0031501704 -0.0074379696 -0.043967403 0.0016013888
0.027688153 -0.017765993 0.02110413 0.017052094 -0.023692004 0.16292076 0.23538838 0.09200311
-0.045320988 0.013239144 0.10382979 0.16175145 0.028005488 0.11874885 0.08275904 0.09341498
0.1646469 0.15322885 0.041939285 -0.15445168 -0.011943836 0.046912257 0.09957761 0.0043102033
0.04895 -0.12671243 -0.133851 0.05337726 -0.044593595 0.017786419 -0.049210332 0.0007534308
-0.13628283 -0.016705675 0.0053042527 0.008496095 0.025902126 -0.028927857 -0.0019193934 -0.0060118167
0.089848876 -0.08933645 -0.11814565 -0.07719525 -0.013021894 0.018909652 0.10970241 -0.09172168
0.115188755 -0.021313814 0.3051427 0.09193542 0.017138328 -0.044726588 -0.017112765 0.18523373
00000000: 76dd 91bc 16d5 9bbc 8e2f 703d 9f55 46be
00000010: 49c6 fb3c 8ee8 d1bd d6ce 8e3d e6b4 073d
00000020: 21c0 523e 974f ef3d a299 57be 5ff7 a23d
00000030: af75 d03d 2152 363e 4977 c93c 83ee d13d
00000040: b81b 3a3e 8243 2bbe 7652 213e c9f5 2c3d
00000050: d79c 03bc e9b5 e2bc fe3c 363e f059 87bd
00000060: 3c75 c3bd d574 213e df19 89bd 7d94 d2bc
00000070: afa9 b2bd 92df e93c cd1a 89bd 85c7 48bd
00000080: 35aa 753e d41f 64bd 1972 af3b 138c 283c
00000090: 6060 e5bd fbfd 15bd 9cd3 d8bd a37f 27bd
000000a0: 71cb 193e a0ab bcbd cfe8 413d 4261 29be
000000b0: 9b8f 2dbe 2083 c2bc 697d 9cbd efdc 873e
000000c0: 5ac5 91bd 42ca 3f3e 06b0 c93d 5e59 3cbe
000000d0: f61d 0bbe ded8 c83d ba76 d5bd 289b 383e
000000e0: 6e78 863c ea92 7ebd 7039 52be 8d5f e7bc
000000f0: f50f 4cbc a6ff b33d db13 743b 2cb7 6f3d
00000100: a8e4 b63d a7cb d1bd bc38 19bc e298 11bd
00000110: 3848 313e 749c b23d c367 e23d 90be 6dbc
00000120: 469f 32bd 2737 9fbd 6edd 74bd 19aa 3f3e
00000130: 8ec5 bcbc 079f 2e3b e122 0fbd 8615 74bd
00000140: 549a ddbd 69c7 d33d 6633 2c3e 22af f1bd
00000150: 141e 41be 290a cb3c a78b 1abe 233f dfbd
00000160: b81a 963c dc21 cbbb 6b19 423d 8877 a6bd
00000170: 51f8 91bc 93db 363e bbab 05bb eb0b c1bd
00000180: b5bc 6bbd dffe 5d3d 94a6 2c3d eff5 33bc
00000190: 65bb 4f3d ca05 45bc bd59 e33d 54d5 073e
000001a0: 3e4f 943c c5c8 633e f64d d83d 7ee8 b73d
000001b0: 23b1 af3c 451f 983d 567c 323e 4e12 be3d
000001c0: 6ca3 ed3d 7a50 133e dc97 913e bce5 e3bc
000001d0: 4c0c b13c 82f9 0dbc d61d 4bbd c3dc 98bd
000001e0: c569 16be 0abf c73d 7c95 d6bd 3a30 32bd
000001f0: b9cf e03d 0482 a7bd a463 7abe 63eb 98bc
00000200: dc3d 5e3d 6d37 f6bc cc34 14be 9888 093d
00000210: 00aa c73d 8529 c0bd 3571 ed3d 4974 3f3d
00000220: 9f35 a0bd 44ab 05be 0e02 c5bd 611d 813d
00000230: c2ac 34bd 1628 b73d 48bc 433d 5441 c3bd
00000240: 2c40 91bd d499 1ebe ccd0 02be a7c0 093e
00000250: 3f60 a0bd 68aa 8ebb aa7e f1bb a93c 983d
00000260: 6e32 4f3d fb9e 24bd f4bd 17be 609b 6abd
00000270: 9204 b7bd 5137 7dbc 444f 87bb 20ec c1bd
00000280: 21f3 07be 915b 1dbe 1033 5dbd 979c a5bd
00000290: 7415 193d 51e1 0ebd 14ec 89bd c931 733d
000002a0: deb5 1fbc ef78 e13d 638d 3ebc 08cf e73c
000002b0: 0506 af3c 909c 3c3c cae1 0f3e 1fdd 29bd
000002c0: 868d 503e ad3d 0cbd f204 71bd 45d3 0bbd
000002d0: a320 4fbd 1d31 233e 925e 83bd 0108 553e
000002e0: 6573 a8bd 0752 b5bd d991 9fbb 28b6 3fbc
000002f0: 9f87 f23d fb7e 893c a7d7 8c3d 99d2 d5bd
00000300: 9f74 b0bb 730d d9bd 6f79 4ebd bf5a 653d
00000310: 1773 4ebb 36ba f3bb 2a17 34bd b1e5 d13a
00000320: 44d2 e23c fd89 91bc 92e2 ac3c d5b0 8b3c
00000330: bc15 c2bc b3d4 263e a709 713e 206c bc3d
00000340: 80a2 39bd ffe8 583c b7a4 d43d 2ca2 253e
00000350: c46b e53c 9932 f33d 927d a93d 5a50 bf3d
00000360: 3299 283e 06e8 1c3e 87c8 2b3d 9528 1ebe
00000370: 14b0 43bc 1127 403d 59ef cb3d 9b3c 8d3b
00000380: cc7f 483d e7c0 01be 3d10 09be 1da2 5a3d
00000390: c6a7 36bd d3b4 913c c690 49bd e381 453a
000003a0: ba8d 0bbe 57da 88bc 4ccf ad3b 3533 0b3c
000003b0: b230 d43c 1dfa ecbc 2894 fbba c6fe c4bb
000003c0: b002 b83d 07f6 b6bd 59f6 f1bd 8b18 9ebd
000003d0: c859 55bc 6ae8 9a3c a8ab e03d 93d8 bbbd
000003e0: 15e8 eb3d 4f9a aebc aa3b 9c3e a348 bc3d
000003f0: ae65 8c3c 3a33 37bd 1230 8cbc e9ad 3d3e

classifier.1.bias f4 [10]
0.06073058 -0.14580819 0.4362191 -0.059790317 -0.39894366 -0.15780304 0.1773331 0.007321551
0.14996222 -0.10604818
00000000: a1c0 783d be4e 15be 1c58 df3e b1e6 74bd
00000010: 5842 ccbe 1f97 21be cf96 353e 9fe9 ef3b
00000020: b28f 193e ca2f d9bd
